pretrained_agent.pt (torch, 117601 bytes, 54 tensors)

bn1.weight f4 [11]
000000 8c c5 7c 3f c9 9b 84 3f 0f d5 84 3f e3 92 86 3f
       0.9873893 1.0360042 1.037752 1.0513576
000010 ea 50 80 3f 26 9f 7d 3f 07 0d 88 3f 79 9f 91 3f
       1.0024693 0.99070966 1.0628976 1.1376792
000020 3d 36 8f 3f 24 c7 8b 3f 13 bf 7d 3f
       1.1188427 1.0920148 0.9911968

bn1.bias f4 [11]
000000 b7 4a ae 3c 53 d5 96 bd 24 a9 a5 bd ed 80 a4 bd
       0.021275861 -0.07364907 -0.08088902 -0.08032403
000010 96 6f 85 bd 6f 02 a6 3d c1 ce c8 3d db b0 48 3d
       -0.06515424 0.08105933 0.0980506 0.048996788
000020 38 8a bc 3c 68 2c 92 3d d7 a2 aa bd
       0.023015127 0.07137376 -0.083318405

bn1.running_mean f4 [11]
000000 6e b2 66 40 90 f3 1f 3f 90 f3 1f 3f 90 f3 1f 3f
       3.6046405 0.6248102 0.6248102 0.6248102
000010 90 f3 1f 3f 90 f3 1f 3f 92 84 8e 3e 92 84 8e 3e
       0.6248102 0.6248102 0.27835518 0.27835518
000020 92 84 8e 3e 72 63 54 3e de 70 44 3e
       0.27835518 0.2074106 0.1918368

bn1.running_var f4 [11]
000000 42 79 8d 41 9a 1c 71 40 9a 1c 71 40 9a 1c 71 40
       17.684208 3.7673707 3.7673707 3.7673707
000010 9a 1c 71 40 9a 1c 71 40 36 db da 3f 36 db da 3f
       3.7673707 3.7673707 1.7098148 1.7098148
000020 36 db da 3f 23 5f a4 3f fc 34 9a 3f
       1.7098148 1.2841533 1.204742

fc0.weight f4 [32, 11]
000000 96 38 09 bd 59 43 6a 3e a4 77 29 be 22 ab 0f be
       -0.03350123 0.22877254 -0.16549546 -0.14030126
000010 88 c8 55 bd 1d b9 c7 3d 7e be 28 bd 3c 99 5d 3e
       -0.052193195 0.097521044 -0.041197293 0.21640486
000020 2e cd 30 bd b1 64 5b 3d b4 c9 0f bb db 0a 02 bd
       -0.043164425 0.053562824 -0.0021940293 -0.031748634
000030 9e a1 ba be 05 b0 83 be 1b 15 42 be 93 ac 5a bd
       -0.3645143 -0.2572023 -0.18953364 -0.053387236
000040 74 35 fa 3d c3 2b 55 3e 4c 60 27 be 7a 18 df bd
       0.122172266 0.20817475 -0.16345328 -0.108933404
000050 06 b6 11 3e 9f 7b 31 3e ef d8 83 bd f5 5f 8f 3e
       0.14229593 0.17332314 -0.06437861 0.28002897
000060 0a f2 73 bc 4b 2a 9c 3d 5b c3 a0 3e 62 fa a4 be
       -0.01488925 0.07625254 0.31399044 -0.32222277
000070 5f f7 6f be 3a 02 11 be 5a 47 2b be f8 bf 5a 3e
       -0.23434208 -0.14161006 -0.16726437 0.21362293
000080 55 75 21 be 14 25 cb bd 96 84 8d be 91 f3 b3 be
       -0.15767415 -0.099191815 -0.27640218 -0.35146764
000090 90 b7 82 be 3b 91 51 3e 2b e7 18 3e fd 7f 51 3e
       -0.25530672 0.20465557 0.14931934 0.2045898
0000a0 fb 55 78 3d ce e7 fc bd a4 a6 bc 3d 86 45 b4 be
       0.060628872 -0.12348901 0.09211472 -0.35209292
0000b0 4a ef 73 be 43 6f f7 bd a4 90 62 3e a4 9d 58 3e
       -0.2382175 -0.12081768 0.22125489 0.21153885
0000c0 c5 14 d7 bd 5d 8a 49 bb 04 5b 24 3e 82 3f 86 3e
       -0.10502008 -0.0030752637 0.16050345 0.26220328
0000d0 59 b0 ae 3d e5 56 5f 3b 2e 73 91 3e 3a 02 11 be
       0.085297294 0.0034078893 0.28408188 -0.14161006
0000e0 ef 77 8a 39 3d 37 89 be c7 24 87 be 23 d5 51 be
       0.0002641077 -0.26799956 -0.26395246 -0.20491461
0000f0 da af 1f 3e 98 72 33 3e 3d 33 fc bd 81 17 08 3e
       0.15594426 0.17524183 -0.123144604 0.13290216
000100 33 c6 57 3e 06 23 d0 bd 56 f9 c8 bc d6 33 d4 3d
       0.21071701 -0.1016293 -0.024532955 0.103614494
000110 38 d5 47 3e ab 1f a1 3e 20 9a 50 be 3b 49 06 be
       0.1951493 0.31469473 -0.20371294 -0.13113873
000120 99 de 87 3d 8e e6 4f 3e 63 15 6a 3e cf 2f 62 3e
       0.06634254 0.20302793 0.22859721 0.2208855
000130 b2 89 09 3e 70 f8 8e be 33 58 34 3d 0d f5 2b be
       0.13431433 -0.27923918 0.044029426 -0.16792698
000140 d0 28 85 be 75 ae 8e 3e 0f 2a 69 3e 26 4a b7 be
       -0.260077 0.27867475 0.2276995 -0.35798758
000150 03 ee 2e bc 39 e6 da bd d4 50 eb bd 65 b6 b3 bd
       -0.010676864 -0.10688443 -0.11490026 -0.08775023
000160 23 e8 a5 3d af 81 e1 bd 13 5a 29 3e 0e 5f 60 3e
       0.08100917 -0.11011063 0.16538267 0.2191126
000170 c0 f8 8c 3e 96 07 c7 3d f4 5e b4 be 20 57 7f be
       0.2753353 0.09718244 -0.35228693 -0.2493558
000180 38 b6 d9 3d 87 9d 96 3c 8e 08 2f be 5d ae 48 be
       0.106304586 0.018385662 -0.17093107 -0.19597764
000190 3c 47 9c 3e b2 98 4d 3e 85 4b f6 bd 72 65 7b bd
       0.30523098 0.2007778 -0.12026123 -0.061376043
0001a0 e6 3d 9f be 9d 60 89 bd 63 24 a2 be d3 bc a2 be
       -0.31101912 -0.06707881 -0.31668386 -0.31784686
0001b0 a3 2a bd bd 48 e6 a5 3d 9b 90 12 be 78 b6 82 3e
       -0.09236648 0.08100563 -0.14312975 0.25529838
0001c0 b7 76 07 be e4 d9 ae 3e e5 c0 8a 3e 89 ea 89 be
       -0.1322888 0.34150612 0.27100292 -0.2693675
0001d0 51 6c fb bd 20 b7 c6 bc e6 90 c9 3c 2c 2e df 3c
       -0.12276519 -0.024257243 0.024605226 0.027243696
0001e0 4f d2 3e 3e 16 06 50 3d ce f4 58 be ca e8 a0 3d
       0.18634914 0.050787054 -0.21187136 0.07856901
0001f0 e5 96 ba be d5 b4 6d be 31 d7 87 bd 05 64 bc bd
       -0.36443248 -0.23213513 -0.066328414 -0.09198765
000200 90 53 99 bd d7 53 71 be 55 b3 09 bd 10 cf c2 bc
       -0.074866414 -0.23567139 -0.03361829 -0.023780376
000210 cc 5b 2c be 7b f1 a5 bd 47 c3 31 3e 67 3c ad bd
       -0.16831893 -0.08102699 0.17359649 -0.084587865
000220 89 07 40 bd 68 16 22 bc 26 8f fe 3d 65 4f 89 3e
       -0.046882186 -0.009893037 0.12429647 0.26818386
000230 fa 35 b1 3e 88 f1 86 3e 3c 4c 68 3e 99 0f d0 3b
       0.34611493 0.2635615 0.22685331 0.0063495156
000240 6c 0d 9a be c3 04 2a be f4 e3 34 3e ab 75 d6 bc
       -0.30088365 -0.16603379 0.17665082 -0.026179155
000250 5f a9 2d be c4 a4 56 be bf 8e 85 be 82 d7 71 be
       -0.16959141 -0.2096129 -0.2608547 -0.23617366
000260 70 30 18 bd 2a e3 9c 3d 71 da 3b 3e bd 9f ac be
       -0.03715557 0.076605156 0.18345048 -0.3371562
000270 29 ce 08 3e f7 25 99 be 9d 07 ca bd 73 a7 ec bd
       0.13359894 -0.29911777 -0.09864733 -0.11555376
000280 2b c5 1a bb cb 5d b4 bc 79 f0 75 be 0b c9 6b be
       -0.0023616056 -0.02201738 -0.24017514 -0.2302591
000290 e0 5c 01 be b9 00 11 bd 0b 9a c8 bd 36 4f 25 3e
       -0.12633085 -0.03540108 -0.09795006 0.16143498
0002a0 a9 d6 66 be 2c 25 79 3c a6 b8 92 3e 30 72 12 be
       -0.22542824 0.015206616 0.286565 -0.14301372
0002b0 ea 7b 81 3e 55 d8 d4 3d f4 7e 97 be 4c ee 90 3e
       0.2528985 0.103928246 -0.29589045 0.28306806
0002c0 05 18 6d bd 66 d9 81 bd 91 af 95 3e fa 36 3b be
       -0.057884235 -0.063402936 0.2923551 -0.1828269
0002d0 49 5a c0 3d b9 4b 86 bd 54 b7 33 3e d3 08 50 3d
       0.093922205 -0.06557412 0.17550403 0.050789665
0002e0 a7 60 04 3e 1c a8 83 3d e5 a6 47 3b 9b 79 a1 bd
       0.12927495 0.06428549 0.0030464467 -0.078845225
0002f0 f1 53 56 be d2 cb 37 3e ad e5 89 3e 1c 04 70 3e
       -0.20930459 0.17948845 0.2693304 0.23439068
000300 b1 54 6b be 63 50 56 bd 53 ea 9d be 11 a5 82 be
       -0.22981526 -0.052322756 -0.30842838 -0.2551656
000310 c4 ad 81 be 56 6d 1e 3e c1 4f 54 be c1 ee 81 3d
       -0.25327885 0.15471396 -0.20733549 0.06344367
000320 67 39 7a 3d 03 e4 89 3e cf 8d 2c be f7 ff 62 be
       0.0610899 0.26931772 -0.1685097 -0.22167955
000330 31 28 70 be 03 a5 1d 3e 8f 49 24 be 8b 47 53 3e
       -0.23452832 0.15394978 -0.16043685 0.2063276
000340 28 ad 32 3e bd 0d 65 3d 8c 46 6f bd 30 4f d0 bd
       0.17448866 0.055921305 -0.058416888 -0.10171354
000350 7d 84 80 bc 0e da e8 bd 62 18 32 3c 5b 6b a9 3d
       -0.015688175 -0.11369716 0.010870071 0.082724296
000360 17 2a 47 be 69 4a 0a be 76 5e 92 3e ce e1 a4 be
       -0.1944965 -0.13504948 0.28587693 -0.32203525
000370 41 9c 74 bd a1 f1 b4 3e a3 86 29 3e 62 0b 9a 3d
       -0.059719328 0.35340598 0.16555266 0.07521702
000380 34 28 5a be 06 eb 11 3e 08 85 8a be 97 64 16 be
       -0.21304399 0.1424981 -0.2705462 -0.1468681
000390 2a c5 1c be 48 70 bc bd a5 cc 8c 3d 41 b6 5d 3e
       -0.15309587 -0.092011034 0.0687497 0.21651556
0003a0 00 aa d3 3d 46 4b ae 3e f3 b8 85 3e ce 69 0f be
       0.10335159 0.34041804 0.26117668 -0.14005205
0003b0 89 cc b8 3d dd ab 7a be 17 5b 1b be 33 a7 a4 3d
       0.09023387 -0.24479623 -0.15171467 0.08039703
0003c0 a5 57 b1 3d a2 9f 97 3e 70 0d 01 be 5f 17 48 3d
       0.08659295 0.29613978 -0.12602782 0.048850413
0003d0 aa 32 57 3e 77 01 69 be 51 f1 83 3e 2d 95 83 be
       0.2101542 -0.22754465 0.25770047 -0.2569975
0003e0 ea b9 5c bd 16 5b e4 bd 32 43 55 be ca 91 4b bc
       -0.05388824 -0.11150186 -0.20826414 -0.012424896
0003f0 cb 36 a2 3e c9 66 f5 bd 2e 57 07 be 9a 09 86 bd
       0.3168243 -0.11982495 -0.1321685 -0.065448

fc0.bias f4 [32]
000000 9b fd 0d be 0d d3 3b 3e 49 a5 28 bc e5 92 54 3e
       -0.13866274 0.18342228 -0.010293313 0.20759161
000010 27 db 2a be 31 ae 5c 3e ac 0d 8e be 13 8e ba 3c
       -0.16685162 0.21550824 -0.27744806 0.022772824
000020 e6 91 92 be 2d 07 bc be 6c 03 a8 be c1 44 96 3e
       -0.28626937 -0.36724225 -0.3281511 0.2934933
000030 89 c9 7e 3e 3f c2 a7 3e 75 f7 96 3e 24 9f ac be
       0.24881567 0.32765386 0.2948567 -0.33715165
000040 20 46 97 be d2 54 03 be c0 b7 8a be 66 cc 90 3e
       -0.2954569 -0.12825325 -0.27093315 0.28280944
000050 94 48 9c be 95 1b 5a be 06 d6 b9 be 1d 78 76 be
       -0.30524123 -0.21299584 -0.362961 -0.24069257
000060 ad 5d a5 3e 82 fe b2 3e 85 16 90 3e 29 3c 9f 3e
       0.3229803 0.349598 0.2814218 0.31100586
000070 b5 c9 b1 3e 05 e0 01 be 0b fc 5c 3e b6 22 b3 3e
       0.34724203 -0.12683113 0.21580522 0.3498742

bn2.weight f4 [32]
000000 00 00 80 3f 00 00 80 3f 00 00 80 3f 00 00 80 3f
       1.0 1.0 1.0 1.0
000010 00 00 80 3f 00 00 80 3f 00 00 80 3f 00 00 80 3f
       1.0 1.0 1.0 1.0
000020 00 00 80 3f 00 00 80 3f 00 00 80 3f 00 00 80 3f
       1.0 1.0 1.0 1.0
000030 00 00 80 3f 00 00 80 3f 00 00 80 3f 00 00 80 3f
       1.0 1.0 1.0 1.0
000040 00 00 80 3f 00 00 80 3f 00 00 80 3f 00 00 80 3f
       1.0 1.0 1.0 1.0
000050 00 00 80 3f 00 00 80 3f 00 00 80 3f 00 00 80 3f
       1.0 1.0 1.0 1.0
000060 00 00 80 3f 00 00 80 3f 00 00 80 3f 00 00 80 3f
       1.0 1.0 1.0 1.0
000070 00 00 80 3f 00 00 80 3f 00 00 80 3f 00 00 80 3f
       1.0 1.0 1.0 1.0

bn2.bias f4 [32]
000000 00 00 00 00 00 00 00 00 00 00 00 00 00 00 00 00
       0.0 0.0 0.0 0.0
000010 00 00 00 00 00 00 00 00 00 00 00 00 00 00 00 00
       0.0 0.0 0.0 0.0
000020 00 00 00 00 00 00 00 00 00 00 00 00 00 00 00 00
       0.0 0.0 0.0 0.0
000030 00 00 00 00 00 00 00 00 00 00 00 00 00 00 00 00
       0.0 0.0 0.0 0.0
000040 00 00 00 00 00 00 00 00 00 00 00 00 00 00 00 00
       0.0 0.0 0.0 0.0
000050 00 00 00 00 00 00 00 00 00 00 00 00 00 00 00 00
       0.0 0.0 0.0 0.0
000060 00 00 00 00 00 00 00 00 00 00 00 00 00 00 00 00
       0.0 0.0 0.0 0.0
000070 00 00 00 00 00 00 00 00 00 00 00 00 00 00 00 00
       0.0 0.0 0.0 0.0

bn2.running_mean f4 [32]
000000 00 00 00 00 00 00 00 00 00 00 00 00 00 00 00 00
       0.0 0.0 0.0 0.0
000010 00 00 00 00 00 00 00 00 00 00 00 00 00 00 00 00
       0.0 0.0 0.0 0.0
000020 00 00 00 00 00 00 00 00 00 00 00 00 00 00 00 00
       0.0 0.0 0.0 0.0
000030 00 00 00 00 00 00 00 00 00 00 00 00 00 00 00 00
       0.0 0.0 0.0 0.0
000040 00 00 00 00 00 00 00 00 00 00 00 00 00 00 00 00
       0.0 0.0 0.0 0.0
000050 00 00 00 00 00 00 00 00 00 00 00 00 00 00 00 00
       0.0 0.0 0.0 0.0
000060 00 00 00 00 00 00 00 00 00 00 00 00 00 00 00 00
       0.0 0.0 0.0 0.0
000070 00 00 00 00 00 00 00 00 00 00 00 00 00 00 00 00
       0.0 0.0 0.0 0.0

bn2.running_var f4 [32]
000000 00 00 80 3f 00 00 80 3f 00 00 80 3f 00 00 80 3f
       1.0 1.0 1.0 1.0
000010 00 00 80 3f 00 00 80 3f 00 00 80 3f 00 00 80 3f
       1.0 1.0 1.0 1.0
000020 00 00 80 3f 00 00 80 3f 00 00 80 3f 00 00 80 3f
       1.0 1.0 1.0 1.0
000030 00 00 80 3f 00 00 80 3f 00 00 80 3f 00 00 80 3f
       1.0 1.0 1.0 1.0
000040 00 00 80 3f 00 00 80 3f 00 00 80 3f 00 00 80 3f
       1.0 1.0 1.0 1.0
000050 00 00 80 3f 00 00 80 3f 00 00 80 3f 00 00 80 3f
       1.0 1.0 1.0 1.0
000060 00 00 80 3f 00 00 80 3f 00 00 80 3f 00 00 80 3f
       1.0 1.0 1.0 1.0
000070 00 00 80 3f 00 00 80 3f 00 00 80 3f 00 00 80 3f
       1.0 1.0 1.0 1.0

fc1.weight f4 [64, 32]
000000 96 3f c4 3d d6 e5 d4 3d ec 06 bf 3d 83 56 fd 3c
       0.095824406 0.103954 0.09327492 0.030925041
000010 cb 02 95 bc 18 6d 46 3c 57 d5 d2 3d 94 c6 a2 bd
       -0.018189808 0.012110971 0.102945976 -0.07948032
000020 65 6d e8 bc 93 7c 29 bd b9 df 88 bd 44 ad 43 3d
       -0.028372476 -0.04137857 -0.06683297 0.04777266
000030 cb a2 5c 3d 71 72 c5 bd 53 d1 28 be 9d 62 5c 3e
       0.05386619 -0.096409686 -0.16486101 0.21521993
000040 2c be 45 3e 73 3b 8d 3d b3 4c 05 bd 98 b0 aa 3d
       0.19310826 0.06896105 -0.03254385 0.08334464
000050 91 15 0e 3e 86 98 9b bd 1b 9e 72 3e d8 6d 30 3e
       0.13875414 -0.07597451 0.23693125 0.17229402
000060 80 71 09 be fe d0 91 3c b9 e5 38 be dc 88 d6 bd
       -0.13422203 0.01779985 -0.18056382 -0.104753226
000070 03 95 af 3d 6a 78 b1 3d 02 8d 3c be b2 49 01 be
       0.085733436 0.08665545 -0.18413165 -0.12625769
000080 4d b3 28 bb 56 70 d3 bd b8 02 47 3d d6 ae c1 3d
       -0.0025741637 -0.10324161 0.048586577 0.094571754
000090 94 65 81 3d f4 4f 2f be 65 53 ac 3d e8 39 b1 3d
       0.063182026 -0.17120343 0.08414344 0.08653623
0000a0 72 36 1e 3e 9e ab cd bd b3 7c 12 3d 7f 47 4e be
       0.15450457 -0.10042499 0.035763454 -0.20144461
0000b0 63 27 09 be 2c 88 08 bc 1e ab 43 be f3 e8 0a 3e
       -0.13393931 -0.008333247 -0.19108245 0.13565426
0000c0 9c d6 60 3e e9 bc 98 3d 39 b6 7c bd 7a 2d 0a be
       0.21956867 0.07457907 -0.06169722 -0.1349391
0000d0 f8 21 d6 3d 5b 4a b3 bd fd 4e 1c 3e c7 c4 e9 bd
       0.10455698 -0.087544166 0.15264507 -0.114144854
0000e0 67 80 6e be bb 22 73 be de fb dd bd 82 15 5e 3d
       -0.23291169 -0.23743717 -0.108390555 0.05421973
0000f0 6a 14 6e be a6 73 66 3e 83 5e ec bd 7b 4c 04 bb
       -0.23249975 0.22505054 -0.11541464 -0.0020187187
000100 13 b3 01 bd b1 30 c6 bd 25 1d ea 3d b0 78 1e 3e
       -0.03166492 -0.09677256 0.1143134 0.15475726
000110 29 8c e6 3d 93 9d 0f 3e 67 6d 44 be d7 d3 10 3e
       0.11257202 0.14024954 -0.19182359 0.1414331
000120 11 6a 43 bd 5b 69 b4 3c bc 43 57 be 44 b9 8c 3c
       -0.047708575 0.022022894 -0.21021932 0.017178185
000130 33 f6 0c be c7 63 a2 3a f3 0e d8 3d 61 38 55 be
       -0.13765793 0.0012389355 0.10549726 -0.20822288
000140 0f 48 83 bc c4 bb 0f 3d f0 38 0c bd 28 00 3e bd
       -0.016025571 0.035091177 -0.034233987 -0.046386868
000150 ae 73 4c be 86 8a b3 bd 16 d5 3f 3c 9f 8a 08 3e
       -0.19966003 -0.087666556 0.0117085185 0.1333413
000160 a8 5f 2c 3e 0a d3 fd 3c a6 21 02 3e 41 af f6 bd
       0.16833365 0.03098442 0.12708148 -0.12045146
000170 76 fe af bd 4a 07 02 3c 56 20 a3 bd 75 24 02 3e
       -0.085934564 0.007936308 -0.07965152 0.1270922
000180 c3 7c 24 be 8c b9 c9 bc a6 e0 31 be 12 07 1f 3e
       -0.16063218 -0.024624608 -0.17370853 0.15530041
000190 9e 33 81 bd ad d6 45 3e da 35 2e 3d 47 bb d3 3d
       -0.06308673 0.19320174 0.042531826 0.10338455
0001a0 26 4e 57 bd e4 00 da bd 63 38 c7 bd 15 2b b0 3d
       -0.052564763 -0.10644701 -0.09727552 0.08601967
0001b0 53 91 07 3e bf 57 75 bd ff bb 52 3e 58 a8 a4 bd
       0.1323903 -0.059898134 0.20579527 -0.080399215
0001c0 b6 a1 56 be b9 82 17 be 7d ef e1 3d 45 29 66 3e
       -0.20960125 -0.1479596 0.11032007 0.2247668
0001d0 aa 12 62 be a3 70 82 3d ba 23 06 3d 7e be 90 3d
       -0.22077432 0.0636914 0.032748915 0.070675835
0001e0 51 20 50 3e bb 80 23 bd b5 d4 f2 3d 22 4a 04 3e
       0.20324828 -0.03991769 0.11856977 0.12918904
0001f0 43 ae 89 3b 9f 61 10 bc db 49 a5 ba 78 0e 18 3e
       0.004201682 -0.008812337 -0.0012610512 0.1484927
000200 22 db 9e bd 8b b1 55 bc 37 0a c9 3b 68 fe f3 3d
       -0.0775664 -0.013042818 0.006135251 0.119137585
000210 a8 07 fd bd 8a 46 90 3d b7 74 38 3d 2e 50 8d bc
       -0.12354976 0.07044704 0.045033183 -0.017250147
000220 42 da a0 ba 56 de ba bd 7e d5 0c 3c f9 1b 9a bd
       -0.0012272077 -0.091244385 0.008595822 -0.075248666
000230 c7 ab 69 bd 60 7a 11 bd 4d f9 56 3e 9f c8 d9 bd
       -0.057048585 -0.035517097 0.20993538 -0.106339686
000240 b2 f9 70 bd b0 99 0b be ce 12 0b 3e e0 fe 6c 3e
       -0.058831878 -0.13632846 0.13581392 0.23144102
000250 b0 cb 3e be 2b 17 4d be 8f 68 40 be e1 1b f4 bc
       -0.18632388 -0.20028369 -0.18789886 -0.02979845
000260 64 70 7d 3b a0 0a 5c bd 01 73 32 bb 04 b4 bd 3d
       0.0038671726 -0.05372107 -0.0027229192 0.09262851
000270 0c 86 2b bd 49 08 3a 3b 55 b9 47 3c ef 56 35 bd
       -0.041875884 0.0028386286 0.012190183 -0.04427236
000280 85 0c b6 bc 92 d6 48 3e f9 28 16 be e1 58 6d 3d
       -0.022222767 0.19613102 -0.14664067 0.05794609
000290 da b5 01 be 4b a9 5f 3e 38 52 6b be 8c fd 30 be
       -0.12667027 0.21841924 -0.22980583 -0.1728422
0002a0 86 8b f8 3d bf 26 35 be 32 32 e5 bc 2d d5 29 3d
       0.12135987 -0.17690562 -0.027978037 0.041463066
0002b0 f6 ba 0b 3c 10 a7 95 3c 08 48 36 3e e5 9c 61 bd
       0.008528462 0.018268138 0.17800915 -0.055081267
0002c0 14 a9 72 be ef 15 33 be b3 63 00 be 8f 7c 1c 3e
       -0.2369731 -0.17488836 -0.12538032 0.1528189
0002d0 d1 29 31 be 2a ce 07 3e 49 09 d2 bd ac 20 ae bd
       -0.17301108 0.13262239 -0.10255677 -0.085023254
0002e0 f2 e9 4b 3e 76 9e 0f 3e e0 f0 55 3e 7e f3 1a 3e
       0.19913462 0.14025292 0.20892668 0.15131947
0002f0 8e 59 af 3b 24 00 26 be b4 76 c7 3c f0 34 44 3e
       0.005351252 -0.16210991 0.024348594 0.19160819
000300 a2 7c dd bd 7b 9d be bd e0 3e 1a 3d 7b c6 77 3e
       -0.108147874 -0.09307381 0.03765762 0.24196808
000310 44 ae b8 bd 45 8f a5 bd 4d 3e 60 be da 2b 3b 3d
       -0.090176135 -0.08083967 -0.21898766 0.045696117
000320 a4 cf a2 bd b8 7e 0c be df 94 96 bc 48 5f 01 3e
       -0.079497606 -0.13720214 -0.018381534 0.12634003
000330 50 b6 49 3e 9f d2 46 3e 82 86 ca 3c 32 2b 59 be
       0.19698453 0.19416283 0.024722341 -0.21207884
000340 ba d9 5b be 8b fa dc 3d 6a 63 0c 3d 1f d1 0a 3e
       -0.21469775 0.10789975 0.034274496 0.13556336
000350 34 05 57 be 03 90 f2 3d c7 ab ed 3d 16 1e ec 3d
       -0.20998079 0.11843874 0.116050296 0.11529176
000360 a9 4b ca bd 02 c2 e1 bb 0b db 70 bd 9e e2 6b 3e
       -0.09877712 -0.0068895826 -0.058802646 0.23035666
000370 64 ab b9 bc e7 a3 06 be 55 be 0c 3e ea 56 da bc
       -0.022664733 -0.13148461 0.13744481 -0.026652772
000380 4c 18 d3 bc a1 db da bd 4d 4e 8d bc 22 42 6b be
       -0.025768422 -0.10686422 -0.01724925 -0.22974446
000390 73 10 5b 3e f8 ad 24 be 87 26 22 3e 41 d9 07 3e
       0.21392994 -0.16081989 0.1583501 0.1326647
0003a0 19 d0 31 3e dc 1d c6 3d 37 b5 6f 3e a9 9e 88 bd
       0.17364539 0.09673664 0.23408972 -0.06670887
0003b0 77 24 11 be 61 f7 98 3d fa ab 27 bd b0 9f b0 bd
       -0.14174066 0.07469059 -0.040935494 -0.08624208
0003c0 58 3e 14 3d a9 9f 4d bd bd 08 66 3e aa d2 f2 bd
       0.036192268 -0.050201092 0.22464271 -0.11856587
0003d0 e6 36 a2 bd 6a 61 5e 3d d3 a8 41 3e 57 dc d6 3d
       -0.07920627 0.05429212 0.18912058 0.10491245
0003e0 1b 08 c5 bc 36 f8 7c bd 03 94 c2 bc 05 4a 01 be
       -0.024051717 -0.06176015 -0.023752218 -0.12625892
0003f0 b2 29 1b be 1d f6 8e bd 7d cc 33 be 02 1e 1b 3c
       -0.15152624 -0.06980536 -0.17558475 0.009467604

fc1.bias f4 [64]
000000 0b 5a a9 bd b5 a2 d1 3c 63 9c 72 3e bb 94 52 3e
       -0.082691275 0.02559028 0.2369247 0.20564549
000010 e7 51 5e 3e 3b 38 a9 3a 3a ad f9 bb ce 18 d2 bd
       0.21710931 0.0012910435 -0.007619527 -0.10258637
000020 d4 6a e9 3d 91 55 a8 3b 61 0e c6 bd 1c 2b 1e be
       0.11397329 0.0051371534 -0.09670711 -0.15446132
000030 c0 ce 48 be 67 62 6a 3e 27 49 08 3d ef 97 6a 3d
       -0.19610119 0.228891 0.03327289 0.0572738
000040 66 d2 11 be f8 8e 1d be 83 b7 d9 3d dd d0 06 3e
       -0.14240417 -0.1538657 0.10630705 0.13165613
000050 e2 bc fd bd c3 6b 46 bc ac e9 48 3e 9c ce 38 bd
       -0.12389542 -0.012110653 0.19620389 -0.045118913
000060 10 b1 9c bd 05 bd 9e bd ff d9 70 3e 2c 55 79 3c
       -0.076509595 -0.07750896 0.23520659 0.01521806
000070 07 e4 7c 3d ff 10 d8 bd c7 73 0e 3d b0 36 12 be
       0.0617409 -0.10550117 0.034778383 -0.14278674
000080 b6 3c 39 3e 28 6a 80 3d 87 04 b0 3d 2d 41 98 3d
       0.18089566 0.06270248 0.085946135 0.07434306
000090 eb 53 18 be 80 e0 4d 3e 97 b4 14 3e f4 04 a2 bd
       -0.14875762 0.20105171 0.14522015 -0.07911101
0000a0 a8 13 b1 bd 2a cb cb bd fc c1 32 3e 69 fd 09 be
       -0.08646327 -0.0995086 0.17456812 -0.13475575
0000b0 ca 3f 61 3e 12 29 59 bd d6 dc 59 be bf 0a 10 3e
       0.2199699 -0.053017683 -0.21275648 0.140666
0000c0 e8 d2 39 bd 1b dd c3 bd 9d da ea bd 3f 1a 9f bd
       -0.04536715 -0.09563657 -0.114674784 -0.07768678
0000d0 f5 32 57 be 08 38 be bd e6 47 f9 3d c5 16 4b 3d
       -0.21015532 -0.09288031 0.12171917 0.04958226
0000e0 9f 58 39 be 21 f5 1d 3d 82 b6 64 be 57 8c 26 bc
       -0.18100213 0.03856385 -0.22335246 -0.010165296
0000f0 c1 5f 7c 3c eb 4e e9 3d 0c ec 65 be e9 29 07 3d
       0.015403689 0.113920055 -0.22453326 0.032998953

bn3.weight f4 [64]
000000 00 00 80 3f 00 00 80 3f 00 00 80 3f 00 00 80 3f
       1.0 1.0 1.0 1.0
000010 00 00 80 3f 00 00 80 3f 00 00 80 3f 00 00 80 3f
       1.0 1.0 1.0 1.0
000020 00 00 80 3f 00 00 80 3f 00 00 80 3f 00 00 80 3f
       1.0 1.0 1.0 1.0
000030 00 00 80 3f 00 00 80 3f 00 00 80 3f 00 00 80 3f
       1.0 1.0 1.0 1.0
000040 00 00 80 3f 00 00 80 3f 00 00 80 3f 00 00 80 3f
       1.0 1.0 1.0 1.0
000050 00 00 80 3f 00 00 80 3f 00 00 80 3f 00 00 80 3f
       1.0 1.0 1.0 1.0
000060 00 00 80 3f 00 00 80 3f 00 00 80 3f 00 00 80 3f
       1.0 1.0 1.0 1.0
000070 00 00 80 3f 00 00 80 3f 00 00 80 3f 00 00 80 3f
       1.0 1.0 1.0 1.0
000080 00 00 80 3f 00 00 80 3f 00 00 80 3f 00 00 80 3f
       1.0 1.0 1.0 1.0
000090 00 00 80 3f 00 00 80 3f 00 00 80 3f 00 00 80 3f
       1.0 1.0 1.0 1.0
0000a0 00 00 80 3f 00 00 80 3f 00 00 80 3f 00 00 80 3f
       1.0 1.0 1.0 1.0
0000b0 00 00 80 3f 00 00 80 3f 00 00 80 3f 00 00 80 3f
       1.0 1.0 1.0 1.0
0000c0 00 00 80 3f 00 00 80 3f 00 00 80 3f 00 00 80 3f
       1.0 1.0 1.0 1.0
0000d0 00 00 80 3f 00 00 80 3f 00 00 80 3f 00 00 80 3f
       1.0 1.0 1.0 1.0
0000e0 00 00 80 3f 00 00 80 3f 00 00 80 3f 00 00 80 3f
       1.0 1.0 1.0 1.0
0000f0 00 00 80 3f 00 00 80 3f 00 00 80 3f 00 00 80 3f
       1.0 1.0 1.0 1.0

bn3.bias f4 [64]
000000 00 00 00 00 00 00 00 00 00 00 00 00 00 00 00 00
       0.0 0.0 0.0 0.0
000010 00 00 00 00 00 00 00 00 00 00 00 00 00 00 00 00
       0.0 0.0 0.0 0.0
000020 00 00 00 00 00 00 00 00 00 00 00 00 00 00 00 00
       0.0 0.0 0.0 0.0
000030 00 00 00 00 00 00 00 00 00 00 00 00 00 00 00 00
       0.0 0.0 0.0 0.0
000040 00 00 00 00 00 00 00 00 00 00 00 00 00 00 00 00
       0.0 0.0 0.0 0.0
000050 00 00 00 00 00 00 00 00 00 00 00 00 00 00 00 00
       0.0 0.0 0.0 0.0
000060 00 00 00 00 00 00 00 00 00 00 00 00 00 00 00 00
       0.0 0.0 0.0 0.0
000070 00 00 00 00 00 00 00 00 00 00 00 00 00 00 00 00
       0.0 0.0 0.0 0.0
000080 00 00 00 00 00 00 00 00 00 00 00 00 00 00 00 00
       0.0 0.0 0.0 0.0
000090 00 00 00 00 00 00 00 00 00 00 00 00 00 00 00 00
       0.0 0.0 0.0 0.0
0000a0 00 00 00 00 00 00 00 00 00 00 00 00 00 00 00 00
       0.0 0.0 0.0 0.0
0000b0 00 00 00 00 00 00 00 00 00 00 00 00 00 00 00 00
       0.0 0.0 0.0 0.0
0000c0 00 00 00 00 00 00 00 00 00 00 00 00 00 00 00 00
       0.0 0.0 0.0 0.0
0000d0 00 00 00 00 00 00 00 00 00 00 00 00 00 00 00 00
       0.0 0.0 0.0 0.0
0000e0 00 00 00 00 00 00 00 00 00 00 00 00 00 00 00 00
       0.0 0.0 0.0 0.0
0000f0 00 00 00 00 00 00 00 00 00 00 00 00 00 00 00 00
       0.0 0.0 0.0 0.0

bn3.running_mean f4 [64]
000000 00 00 00 00 00 00 00 00 00 00 00 00 00 00 00 00
       0.0 0.0 0.0 0.0
000010 00 00 00 00 00 00 00 00 00 00 00 00 00 00 00 00
       0.0 0.0 0.0 0.0
000020 00 00 00 00 00 00 00 00 00 00 00 00 00 00 00 00
       0.0 0.0 0.0 0.0
000030 00 00 00 00 00 00 00 00 00 00 00 00 00 00 00 00
       0.0 0.0 0.0 0.0
000040 00 00 00 00 00 00 00 00 00 00 00 00 00 00 00 00
       0.0 0.0 0.0 0.0
000050 00 00 00 00 00 00 00 00 00 00 00 00 00 00 00 00
       0.0 0.0 0.0 0.0
000060 00 00 00 00 00 00 00 00 00 00 00 00 00 00 00 00
       0.0 0.0 0.0 0.0
000070 00 00 00 00 00 00 00 00 00 00 00 00 00 00 00 00
       0.0 0.0 0.0 0.0
000080 00 00 00 00 00 00 00 00 00 00 00 00 00 00 00 00
       0.0 0.0 0.0 0.0
000090 00 00 00 00 00 00 00 00 00 00 00 00 00 00 00 00
       0.0 0.0 0.0 0.0
0000a0 00 00 00 00 00 00 00 00 00 00 00 00 00 00 00 00
       0.0 0.0 0.0 0.0
0000b0 00 00 00 00 00 00 00 00 00 00 00 00 00 00 00 00
       0.0 0.0 0.0 0.0
0000c0 00 00 00 00 00 00 00 00 00 00 00 00 00 00 00 00
       0.0 0.0 0.0 0.0
0000d0 00 00 00 00 00 00 00 00 00 00 00 00 00 00 00 00
       0.0 0.0 0.0 0.0
0000e0 00 00 00 00 00 00 00 00 00 00 00 00 00 00 00 00
       0.0 0.0 0.0 0.0
0000f0 00 00 00 00 00 00 00 00 00 00 00 00 00 00 00 00
       0.0 0.0 0.0 0.0

bn3.running_var f4 [64]
000000 00 00 80 3f 00 00 80 3f 00 00 80 3f 00 00 80 3f
       1.0 1.0 1.0 1.0
000010 00 00 80 3f 00 00 80 3f 00 00 80 3f 00 00 80 3f
       1.0 1.0 1.0 1.0
000020 00 00 80 3f 00 00 80 3f 00 00 80 3f 00 00 80 3f
       1.0 1.0 1.0 1.0
000030 00 00 80 3f 00 00 80 3f 00 00 80 3f 00 00 80 3f
       1.0 1.0 1.0 1.0
000040 00 00 80 3f 00 00 80 3f 00 00 80 3f 00 00 80 3f
       1.0 1.0 1.0 1.0
000050 00 00 80 3f 00 00 80 3f 00 00 80 3f 00 00 80 3f
       1.0 1.0 1.0 1.0
000060 00 00 80 3f 00 00 80 3f 00 00 80 3f 00 00 80 3f
       1.0 1.0 1.0 1.0
000070 00 00 80 3f 00 00 80 3f 00 00 80 3f 00 00 80 3f
       1.0 1.0 1.0 1.0
000080 00 00 80 3f 00 00 80 3f 00 00 80 3f 00 00 80 3f
       1.0 1.0 1.0 1.0
000090 00 00 80 3f 00 00 80 3f 00 00 80 3f 00 00 80 3f
       1.0 1.0 1.0 1.0
0000a0 00 00 80 3f 00 00 80 3f 00 00 80 3f 00 00 80 3f
       1.0 1.0 1.0 1.0
0000b0 00 00 80 3f 00 00 80 3f 00 00 80 3f 00 00 80 3f
       1.0 1.0 1.0 1.0
0000c0 00 00 80 3f 00 00 80 3f 00 00 80 3f 00 00 80 3f
       1.0 1.0 1.0 1.0
0000d0 00 00 80 3f 00 00 80 3f 00 00 80 3f 00 00 80 3f
       1.0 1.0 1.0 1.0
0000e0 00 00 80 3f 00 00 80 3f 00 00 80 3f 00 00 80 3f
       1.0 1.0 1.0 1.0
0000f0 00 00 80 3f 00 00 80 3f 00 00 80 3f 00 00 80 3f
       1.0 1.0 1.0 1.0

fc2.weight f4 [64, 64]
000000 0f 79 28 3d 79 83 10 3d 12 2f 67 bb 5b 66 03 3e
       0.041131075 0.035281632 -0.0035275859 0.12832014
000010 43 77 05 3e 0c bf 15 3e 87 29 ce bc 1c 65 5a 3c
       0.13033776 0.1462366 -0.025166286 0.01332977
000020 0b c0 d3 3c 5d a4 0e be e1 52 18 bd c7 5a 13 3d
       0.02584841 -0.13929887 -0.037188414 0.035975244
000030 52 0e 1f be cc c9 12 3e 0d c3 67 3d 50 c5 ed 3d
       -0.15532807 0.14334792 0.0565825 0.116099
000040 02 63 55 3d 6f d4 28 bd cb fd 13 bd 80 13 35 3d
       0.052096374 -0.041218217 -0.036130708 0.04420805
000050 5b f2 47 bd be 60 67 bd b5 cd ae 3d 44 44 a2 bc
       -0.048815113 -0.056488745 0.08535329 -0.019807942
000060 c2 11 64 3d 6b 8e f4 bc f0 b8 ae bc 47 67 e1 bd
       0.055680998 -0.029853066 -0.02132842 -0.11006027
000070 2d db a4 3d 5c 98 4d be aa b8 c3 3c 28 ff 2a be
       0.08049617 -0.20077652 0.023891766 -0.16698897
000080 a2 f9 92 3d 6a fa bd 3d 1a cf f3 3d 2f 3f f6 bb
       0.0717652 0.09276278 0.11904736 -0.0075148563
000090 eb 8f 5f bd fd c1 06 3e 6d 6c 3b 3e dc 06 7f bd
       -0.05458061 0.13159938 0.1830308 -0.0622624
0000a0 4b 07 e1 bb 6e 37 28 bd 1c 46 99 3d 2e 67 24 be
       -0.0068673245 -0.041068487 0.074840754 -0.16054985
0000b0 a8 bf e6 bc f0 a5 f7 bc a4 6b 18 be c2 84 b1 3c
       -0.02816756 -0.030230492 -0.14884812 0.02166975
0000c0 46 74 b2 bb e1 47 30 be 32 cf 68 bd f7 7b db bb
       -0.00544599 -0.1721492 -0.05683822 -0.0066981274
0000d0 01 4b 06 be 88 e6 b7 3d 21 9c 6b 3d 63 04 b9 3d
       -0.13114549 0.08979517 0.057521943 0.0903404
0000e0 ed 0c 25 be 20 84 29 3c e0 db 52 3d f7 f8 7f 3c
       -0.16118212 0.010346442 0.05147922 0.015623323
0000f0 ea 2a 3f be b3 65 be bd f0 62 99 bd 74 8d ef 3c
       -0.18668714 -0.09296741 -0.07489574 0.029242255
000100 0d 84 b0 bd 74 9e 03 be 80 f4 05 3e 81 e6 45 3b
       -0.08618937 -0.12853414 0.1308155 0.0030197205
000110 11 ee f6 3c 40 48 99 3d f1 95 10 bd 71 0a 0d bd
       0.030142816 0.07484484 -0.035299245 -0.034433786
000120 78 9c 00 3e 6c 9c 07 be e0 d1 50 bc 56 2f 35 bd
       0.12559688 -0.13243264 -0.012745351 -0.044234596
000130 85 13 d2 3c c0 d9 ea 3d b2 2e 9c 3d 1a ee 49 3d
       0.025644073 0.11467314 0.07626094 0.049299337
000140 6c c9 08 be b5 29 01 3c c5 c2 e1 3d 90 59 d6 bb
       -0.13358086 0.007883479 0.110234775 -0.0065414384
000150 d3 0e 29 be 46 03 12 3e ae fd 13 3b cc 2c 1d 3d
       -0.16509561 0.14259061 0.0022581625 0.0383728
000160 3c 92 2f 3c aa 9f 11 3d c3 91 31 3e 2b 79 cd 3c
       0.010716017 0.03555266 0.1734076 0.025082191
000170 7d 8e 94 3c ba d4 1b 3d 5c 03 c4 3c dc 52 e6 bc
       0.01813435 0.03804467 0.023927383 -0.028115682
000180 e4 a1 79 bd dc b8 91 bc 14 2d 8d bd e8 a9 f1 3d
       -0.060945407 -0.017788343 -0.068933636 0.11799985
000190 85 5b ab 3d a1 9a f0 3d 3a 1b ac 3d 49 6d 9d 3d
       0.08367065 0.11748243 0.084036306 0.0768686
0001a0 19 cc 2a 3e f8 7c db bd 02 82 07 3b 40 fb 1e be
       0.1667942 -0.10717195 0.0020676856 -0.15525532
0001b0 a8 83 d9 3c 47 1e 5a 3d 53 8d 4a bb b5 da 2f bd
       0.026552036 0.05325153 -0.003090699 -0.042933185
0001c0 ed 21 07 3d 83 41 11 be 70 f2 04 be 4d 93 d4 bc
       0.03299134 -0.14185147 -0.12983108 -0.025949145
0001d0 51 c1 23 be 17 03 a8 3d d6 7a b7 bd 92 bf 5f bd
       -0.15991713 0.08203714 -0.08958976 -0.054626055
0001e0 59 9c 8a bd b1 62 b9 bd 84 2f 96 3d 25 bd 7c 3d
       -0.06768102 -0.09052027 0.07333282 0.06170382
0001f0 7a 0a cd bd f0 03 12 bc 5b e8 b0 3c 23 be 9e 3d
       -0.10011764 -0.008912072 0.02159517 0.077511095
000200 2b 54 76 bc c0 c1 36 be af 5d 25 3e 76 a4 3b bd
       -0.015034716 -0.17847347 0.16149019 -0.04581114
000210 2b 37 29 3d 86 ee 8f 3d b1 c6 bc 3c a9 5b ea bd
       0.041312378 0.070279166 0.023043962 -0.11443264
000220 d1 35 24 bd 67 18 5f bd fa 26 9a bd 68 93 3c 3d
       -0.040090386 -0.05446663 -0.075269654 0.046039015
000230 a9 84 d3 bd 01 ca 12 3e f4 5a 53 3d 95 b2 16 3c
       -0.10328037 0.14334871 0.05160041 0.009197851
000240 a7 cf 88 bd 0f f5 a0 bd 33 ee 44 3d 11 ac 22 3d
       -0.066802315 -0.07859241 0.048078727 0.039714877
000250 a1 3b d5 bc 3a 86 18 3e 36 6e a2 3d 0a 09 b0 3d
       -0.02602941 0.14894953 0.07931177 0.08595474
000260 69 b1 11 3e 4d 49 14 bd 73 2e 05 3e 06 1c 16 3d
       0.14227833 -0.036202718 0.13006 0.03664782
000270 fa 7a 16 3e d5 1c 38 be 71 a9 01 bc 60 5b 88 bd
       0.1469535 -0.17979749 -0.007913933 -0.066580534
000280 96 15 20 3d 45 74 2d 3c f2 83 10 3e d6 1f 32 3e
       0.039083086 0.010586803 0.14112833 0.17394957
000290 74 d8 2a be 74 d0 0b 3e 28 4f 1a 3e 3f f5 72 3d
       -0.16684133 0.13653737 0.15069258 0.059315916
0002a0 23 a5 57 3d 5e 14 f2 3c 39 6c 93 3d de c4 c1 bd
       0.05264772 0.029550727 0.07198376 -0.094613776
0002b0 ee 76 73 3d 5a ff df 3d 3f 9f a5 bc 14 f6 61 3d
       0.059439592 0.10937376 -0.020217536 0.05516632
0002c0 c5 c0 d3 3d 72 ea 4e bc ce 34 1d be c9 dd 17 bd
       0.10339502 -0.012629138 -0.15352175 -0.037076745
0002d0 ec 2c 78 3c 29 ca a9 3d 6b 08 30 3d 4a 49 eb 3d
       0.015147429 0.08290512 0.042976778 0.11488588
0002e0 2d bf 31 be d4 70 6f bd 00 27 d2 bd fe 42 25 3d
       -0.17358084 -0.05845721 -0.10261345 0.04034709
0002f0 c4 13 35 be 5c 8b 14 bd 2b dc 3e be c1 ec 62 3d
       -0.17683321 -0.036265716 -0.18638675 0.055401567
000300 8f 4e 6f 3d 99 3e d8 3c 6b 62 85 3d 0b e4 51 bd
       0.05842453 0.026397036 0.06512912 -0.05124287
000310 9a 92 f3 bd bb de 94 bc 95 2a 18 3d 32 33 5c 3d
       -0.118931964 -0.018172612 0.037149984 0.05375976
000320 6e ea 59 3d ae ee 4c bd a4 d9 a0 3d a5 0d f1 3d
       0.053202085 -0.05003231 0.07854012 0.117701806
000330 55 d4 e4 3d 86 b5 5b bd 5c 1d 2d bc 01 28 1b be
       0.111733116 -0.05363991 -0.010566082 -0.15151979
000340 ba fd 83 bd 9f 2b 36 3d 96 ea 7c bd 12 51 06 3d
       -0.06444879 0.044475194 -0.061747156 0.03279216
000350 31 f9 10 3e ac c7 86 3d ab 82 d4 bd f8 bc 0a be
       0.14157559 0.06581053 -0.103764854 -0.13548648
000360 f0 f3 31 be a7 dc c8 3d ed d1 28 be d3 41 df bd
       -0.17378211 0.09807711 -0.1648633 -0.10901227
000370 af 49 87 bd 11 70 5c bd 0b 02 02 bc a7 32 eb bc
       -0.06605851 -0.053817812 -0.007935057 -0.028710676
000380 50 ee ed bd ec 25 92 3d 26 27 7d bd 4b 4f 59 3d
       -0.1161772 0.07136139 -0.061804913 0.053054135
000390 ce b1 51 3d ef 3a 8d bd 2d 59 b3 bd ab 78 bd bd
       0.05119496 -0.06896006 -0.08757243 -0.09251531
0003a0 62 31 02 be a0 aa 0c 3e 63 c4 b8 bd 24 1d 91 bd
       -0.1271415 0.13736963 -0.09021833 -0.07085636
0003b0 50 2b 80 3d dd 11 56 bd 61 5a 36 bd 70 a5 1a be
       0.06258261 -0.05226313 -0.044519786 -0.15102172
0003c0 25 f4 25 be 28 a1 99 bd bf 22 28 3e c3 a8 11 3e
       -0.16206415 -0.07501441 0.16419505 0.14224534
0003d0 37 b4 7a 3d 40 46 24 be fa c5 9f bd 41 ee 01 be
       0.061207023 -0.16042423 -0.07801433 -0.12688543
0003e0 e9 0e c2 3d 55 a7 d1 bc 8e 7a 78 3c 9f ee 38 3c
       0.094755 -0.025592485 0.015165938 0.01128736
0003f0 20 c3 d8 3d 66 56 00 3e bd 3a a4 3d 49 c0 88 bd
       0.10584092 0.12532958 0.08019016 -0.066773005

fc2.bias f4 [64]
000000 36 bd a7 3b d7 9a f7 3d a9 6d cb 3d fe d3 01 be
       0.0051189912 0.1209008 0.099330254 -0.12678525
000010 76 7b 0e 3e 02 ef a1 bc c6 32 2e 3e 71 df 06 be
       0.13914284 -0.019767288 0.17011556 -0.13171174
000020 de c1 56 bb 72 d5 70 bd da cb c8 bd 80 a6 f2 3d
       -0.0032769362 -0.058797307 -0.098045066 0.118481636
000030 58 bb cc bd ee 05 4f 3d 07 91 a0 bb d1 15 55 bd
       -0.099966705 0.050542764 -0.004900101 -0.05202276
000040 eb 2d 9f bd 58 fc cf 3d b0 5b 89 bd 94 0c 07 3e
       -0.0777243 0.101555526 -0.06706941 0.13188392
000050 ff c3 be 3d 1a 37 40 bc c5 7a 96 3c f9 27 0e 3c
       0.09314727 -0.011731887 0.018369088 0.008676522
000060 ea f2 33 bd dd 77 12 be 5f 4e e7 bd 54 15 99 bd
       -0.043932833 -0.14303537 -0.11294245 -0.07474771
000070 ec 18 e7 bc 21 c5 fa bc 13 25 50 bd a2 2d ef 3d
       -0.028210126 -0.030611577 -0.050816607 0.11678626
000080 c3 e4 15 3d e5 af 64 3d 8d 5d 80 3d 18 46 3e bd
       0.036595117 0.05583181 0.062678434 -0.046453565
000090 e6 45 0d 3e 94 9e 0a be b4 80 8d 3d a2 2f ff 3c
       0.13796195 -0.13537055 0.06909314 0.031150643
0000a0 f2 49 1e 3e 3b 71 74 3d ca 8c 71 bd 11 f9 d3 3d
       0.15457895 0.059678297 -0.058972158 0.1035024
0000b0 54 1b 14 3d c1 3f 17 bd ce c6 60 3d e7 70 96 3d
       0.036158875 -0.036926035 0.054877095 0.07345753
0000c0 25 e6 df bd 9b ca 17 3e 15 8f aa bd 8f 7b da bc
       -0.109325685 0.14823382 -0.08328072 -0.026670245
0000d0 5c 0b 27 3e a4 9d e4 bd 43 63 d1 3d bf a5 94 bb
       0.16312927 -0.1116288 0.10224011 -0.00453636
0000e0 46 9a d8 bd e0 a9 40 3d 1f 0d 37 3e a3 8b a6 3b
       -0.105763 0.047037005 0.17876099 0.005082564
0000f0 d2 f0 bf bd 7f 61 85 3d 56 20 25 3d 57 50 84 3d
       -0.09372105 0.065127365 0.04031404 0.06460636

bn4.weight f4 [64]
000000 00 00 80 3f 00 00 80 3f 00 00 80 3f 00 00 80 3f
       1.0 1.0 1.0 1.0
000010 00 00 80 3f 00 00 80 3f 00 00 80 3f 00 00 80 3f
       1.0 1.0 1.0 1.0
000020 00 00 80 3f 00 00 80 3f 00 00 80 3f 00 00 80 3f
       1.0 1.0 1.0 1.0
000030 00 00 80 3f 00 00 80 3f 00 00 80 3f 00 00 80 3f
       1.0 1.0 1.0 1.0
000040 00 00 80 3f 00 00 80 3f 00 00 80 3f 00 00 80 3f
       1.0 1.0 1.0 1.0
000050 00 00 80 3f 00 00 80 3f 00 00 80 3f 00 00 80 3f
       1.0 1.0 1.0 1.0
000060 00 00 80 3f 00 00 80 3f 00 00 80 3f 00 00 80 3f
       1.0 1.0 1.0 1.0
000070 00 00 80 3f 00 00 80 3f 00 00 80 3f 00 00 80 3f
       1.0 1.0 1.0 1.0
000080 00 00 80 3f 00 00 80 3f 00 00 80 3f 00 00 80 3f
       1.0 1.0 1.0 1.0
000090 00 00 80 3f 00 00 80 3f 00 00 80 3f 00 00 80 3f
       1.0 1.0 1.0 1.0
0000a0 00 00 80 3f 00 00 80 3f 00 00 80 3f 00 00 80 3f
       1.0 1.0 1.0 1.0
0000b0 00 00 80 3f 00 00 80 3f 00 00 80 3f 00 00 80 3f
       1.0 1.0 1.0 1.0
0000c0 00 00 80 3f 00 00 80 3f 00 00 80 3f 00 00 80 3f
       1.0 1.0 1.0 1.0
0000d0 00 00 80 3f 00 00 80 3f 00 00 80 3f 00 00 80 3f
       1.0 1.0 1.0 1.0
0000e0 00 00 80 3f 00 00 80 3f 00 00 80 3f 00 00 80 3f
       1.0 1.0 1.0 1.0
0000f0 00 00 80 3f 00 00 80 3f 00 00 80 3f 00 00 80 3f
       1.0 1.0 1.0 1.0

bn4.bias f4 [64]
000000 00 00 00 00 00 00 00 00 00 00 00 00 00 00 00 00
       0.0 0.0 0.0 0.0
000010 00 00 00 00 00 00 00 00 00 00 00 00 00 00 00 00
       0.0 0.0 0.0 0.0
000020 00 00 00 00 00 00 00 00 00 00 00 00 00 00 00 00
       0.0 0.0 0.0 0.0
000030 00 00 00 00 00 00 00 00 00 00 00 00 00 00 00 00
       0.0 0.0 0.0 0.0
000040 00 00 00 00 00 00 00 00 00 00 00 00 00 00 00 00
       0.0 0.0 0.0 0.0
000050 00 00 00 00 00 00 00 00 00 00 00 00 00 00 00 00
       0.0 0.0 0.0 0.0
000060 00 00 00 00 00 00 00 00 00 00 00 00 00 00 00 00
       0.0 0.0 0.0 0.0
000070 00 00 00 00 00 00 00 00 00 00 00 00 00 00 00 00
       0.0 0.0 0.0 0.0
000080 00 00 00 00 00 00 00 00 00 00 00 00 00 00 00 00
       0.0 0.0 0.0 0.0
000090 00 00 00 00 00 00 00 00 00 00 00 00 00 00 00 00
       0.0 0.0 0.0 0.0
0000a0 00 00 00 00 00 00 00 00 00 00 00 00 00 00 00 00
       0.0 0.0 0.0 0.0
0000b0 00 00 00 00 00 00 00 00 00 00 00 00 00 00 00 00
       0.0 0.0 0.0 0.0
0000c0 00 00 00 00 00 00 00 00 00 00 00 00 00 00 00 00
       0.0 0.0 0.0 0.0
0000d0 00 00 00 00 00 00 00 00 00 00 00 00 00 00 00 00
       0.0 0.0 0.0 0.0
0000e0 00 00 00 00 00 00 00 00 00 00 00 00 00 00 00 00
       0.0 0.0 0.0 0.0
0000f0 00 00 00 00 00 00 00 00 00 00 00 00 00 00 00 00
       0.0 0.0 0.0 0.0

bn4.running_mean f4 [64]
000000 00 00 00 00 00 00 00 00 00 00 00 00 00 00 00 00
       0.0 0.0 0.0 0.0
000010 00 00 00 00 00 00 00 00 00 00 00 00 00 00 00 00
       0.0 0.0 0.0 0.0
000020 00 00 00 00 00 00 00 00 00 00 00 00 00 00 00 00
       0.0 0.0 0.0 0.0
000030 00 00 00 00 00 00 00 00 00 00 00 00 00 00 00 00
       0.0 0.0 0.0 0.0
000040 00 00 00 00 00 00 00 00 00 00 00 00 00 00 00 00
       0.0 0.0 0.0 0.0
000050 00 00 00 00 00 00 00 00 00 00 00 00 00 00 00 00
       0.0 0.0 0.0 0.0
000060 00 00 00 00 00 00 00 00 00 00 00 00 00 00 00 00
       0.0 0.0 0.0 0.0
000070 00 00 00 00 00 00 00 00 00 00 00 00 00 00 00 00
       0.0 0.0 0.0 0.0
000080 00 00 00 00 00 00 00 00 00 00 00 00 00 00 00 00
       0.0 0.0 0.0 0.0
000090 00 00 00 00 00 00 00 00 00 00 00 00 00 00 00 00
       0.0 0.0 0.0 0.0
0000a0 00 00 00 00 00 00 00 00 00 00 00 00 00 00 00 00
       0.0 0.0 0.0 0.0
0000b0 00 00 00 00 00 00 00 00 00 00 00 00 00 00 00 00
       0.0 0.0 0.0 0.0
0000c0 00 00 00 00 00 00 00 00 00 00 00 00 00 00 00 00
       0.0 0.0 0.0 0.0
0000d0 00 00 00 00 00 00 00 00 00 00 00 00 00 00 00 00
       0.0 0.0 0.0 0.0
0000e0 00 00 00 00 00 00 00 00 00 00 00 00 00 00 00 00
       0.0 0.0 0.0 0.0
0000f0 00 00 00 00 00 00 00 00 00 00 00 00 00 00 00 00
       0.0 0.0 0.0 0.0

bn4.running_var f4 [64]
000000 00 00 80 3f 00 00 80 3f 00 00 80 3f 00 00 80 3f
       1.0 1.0 1.0 1.0
000010 00 00 80 3f 00 00 80 3f 00 00 80 3f 00 00 80 3f
       1.0 1.0 1.0 1.0
000020 00 00 80 3f 00 00 80 3f 00 00 80 3f 00 00 80 3f
       1.0 1.0 1.0 1.0
000030 00 00 80 3f 00 00 80 3f 00 00 80 3f 00 00 80 3f
       1.0 1.0 1.0 1.0
000040 00 00 80 3f 00 00 80 3f 00 00 80 3f 00 00 80 3f
       1.0 1.0 1.0 1.0
000050 00 00 80 3f 00 00 80 3f 00 00 80 3f 00 00 80 3f
       1.0 1.0 1.0 1.0
000060 00 00 80 3f 00 00 80 3f 00 00 80 3f 00 00 80 3f
       1.0 1.0 1.0 1.0
000070 00 00 80 3f 00 00 80 3f 00 00 80 3f 00 00 80 3f
       1.0 1.0 1.0 1.0
000080 00 00 80 3f 00 00 80 3f 00 00 80 3f 00 00 80 3f
       1.0 1.0 1.0 1.0
000090 00 00 80 3f 00 00 80 3f 00 00 80 3f 00 00 80 3f
       1.0 1.0 1.0 1.0
0000a0 00 00 80 3f 00 00 80 3f 00 00 80 3f 00 00 80 3f
       1.0 1.0 1.0 1.0
0000b0 00 00 80 3f 00 00 80 3f 00 00 80 3f 00 00 80 3f
       1.0 1.0 1.0 1.0
0000c0 00 00 80 3f 00 00 80 3f 00 00 80 3f 00 00 80 3f
       1.0 1.0 1.0 1.0
0000d0 00 00 80 3f 00 00 80 3f 00 00 80 3f 00 00 80 3f
       1.0 1.0 1.0 1.0
0000e0 00 00 80 3f 00 00 80 3f 00 00 80 3f 00 00 80 3f
       1.0 1.0 1.0 1.0
0000f0 00 00 80 3f 00 00 80 3f 00 00 80 3f 00 00 80 3f
       1.0 1.0 1.0 1.0

fc3.weight f4 [16, 64]
000000 9b ea 80 3e bc bc d1 3d 16 75 6d 3e 4a d7 19 be
       0.2517899 0.10241076 0.23189196 -0.15023533
000010 97 4c 19 3e e0 1c 18 3e 62 91 02 3e af c2 3e bd
       0.14970623 0.14854765 0.12750772 -0.046572383
000020 7c 10 7b be d3 91 f8 bd 58 e9 18 3d 84 9f 2f 3e
       -0.24518007 -0.12137189 0.03733191 0.17150694
000030 06 f3 83 be 62 0f 0b 3e 03 ac e9 3d cd 7b bd bd
       -0.2577135 0.13580087 0.11409762 -0.09252129
000040 54 be 7d be 76 c9 1e 3e 9f c2 53 be 89 e1 1f 3e
       -0.24779636 0.15506539 -0.20679711 0.15613379
000050 1d 77 58 3e ad 82 07 bd aa d0 ec bd e1 db 83 3e
       0.21139188 -0.033083607 -0.11563237 0.25753692
000060 72 a9 f4 3d 34 b5 4e be 79 ee 98 bd cf af 01 3e
       0.11946382 -0.20186311 -0.0746736 0.12664722
000070 3a 32 5b be 01 7e 5d bd d5 11 84 3e 8e 91 4c 3e
       -0.21405879 -0.054075245 0.25794855 0.199774
000080 36 72 1a be e8 82 50 be e2 d2 71 3e c0 ec 47 be
       -0.1508263 -0.20362437 0.23615602 -0.19523907
000090 3a 29 22 3e 1d 4f 7a be a8 a7 5a 3e 91 97 f1 bd
       0.15836039 -0.24444242 0.21353018 -0.11796487
0000a0 af 89 7a 3e b8 db 3f 3e cc 8d 60 be 6d 95 71 3e
       0.24466585 0.1873616 -0.21929091 0.23592158
0000b0 93 77 bb 3c c9 2b 3c be a1 25 9a bd fb 80 1a be
       0.022884166 -0.18376078 -0.075267084 -0.15088265
0000c0 ca 9e c8 bd 00 3f 18 3e 16 36 ff bd e6 7b 3a be
       -0.097959116 0.14867783 -0.12461488 -0.18211326
0000d0 e1 f8 68 3e b9 97 e6 bd 41 c7 23 3e bb 98 f7 3d
       0.2275119 -0.112594076 0.15993978 0.12089678
0000e0 00 9d 4b be 55 58 a4 3d 2c 6f 5a 3e 54 11 5e be
       -0.1988411 0.080246605 0.21331471 -0.21686298
0000f0 26 7c 28 be ce 21 4c be e1 7a 24 3c 6c ec c5 bd
       -0.16453609 -0.1993477 0.010039062 -0.096642345
000100 1a 34 3b bd 4a 43 ca 3c 1f c9 a5 3d dc 17 2e 3d
       -0.045703985 0.024690289 0.080950014 0.042503223
000110 af 72 d7 3d b4 f7 ae bb a1 5b d7 3d 88 fd 84 3c
       0.10519921 -0.005339587 0.10515524 0.016234174
000120 d1 56 86 3c 00 0d 52 3d 92 c2 b8 bd f8 00 b5 3d
       0.01639882 0.05128193 -0.09021486 0.088380754
000130 d1 51 fa 3d cf 0a 04 be d9 50 b8 bd 4b 5c dc 3d
       0.122226365 -0.12894748 -0.089997955 0.10759791
000140 0b 1e 4a 3d 65 63 81 bd f3 1e 3e bd d3 a2 43 bd
       0.049345057 -0.06317786 -0.046416234 -0.047762703
000150 f9 2e 12 bd db 8d ff 3d e6 c4 98 bd 4c 2c 80 3b
       -0.035689328 0.12478229 -0.074594304 0.0039115306
000160 c6 49 60 3c 3a 39 3b bd bf 4f d5 3b 4a 91 02 bd
       0.013689464 -0.045708872 0.0065097506 -0.03187684
000170 88 8e c4 3d f9 35 db 3d 76 5d 9d bc 39 36 a3 bd
       0.09597498 0.10703654 -0.019209605 -0.079693265
000180 01 51 5a bd 80 ed 65 bd 15 b7 ba 3d 99 de eb 3d
       -0.053299908 -0.0561347 0.091169514 0.115170665
000190 e1 37 ab 3c b2 82 ce bd c2 2d 01 3d c3 4f 9a bc
       0.020900669 -0.10083522 0.03153778 -0.018836861
0001a0 4f 70 5f 3d b1 5b 0e 3d e7 22 d2 3d a0 e5 e7 bb
       0.054550465 0.034755412 0.10260563 -0.007076934
0001b0 80 f8 45 bb 26 b8 29 3c b3 63 ba 3d 13 ba ac 3d
       -0.0030207932 0.010358846 0.09101047 0.08433928
0001c0 2e 50 9c 3d fb bf 2e bd aa de a5 bc 90 5d fa 3d
       0.076324806 -0.042663556 -0.020247776 0.12224877
0001d0 31 d2 88 bd cf a3 17 3d d5 d4 44 3c fc 26 38 3d
       -0.06680716 0.037021454 0.012013634 0.044959053
0001e0 39 69 84 bd 58 5c a0 bc 7d af 83 3a 7c cb 32 3a
       -0.06465382 -0.019575283 0.0010046806 0.00068204827
0001f0 ee df d1 bd fd a8 37 3d 80 7e db bd 44 8e aa bc
       -0.10247789 0.044838894 -0.10717487 -0.02081979
000200 eb c5 5b 3d db db b4 3d 46 55 db bc 13 3d 60 bd
       0.053655546 0.088309966 -0.02677406 -0.054745745
000210 3d 5b 82 bd c9 b6 17 3c d4 86 ac bd ea 1e 67 3d
       -0.063650586 0.009259888 -0.08424154 0.056425966
000220 f2 34 44 3d 07 84 07 3e 3e c6 df 3d bd 7a 48 bd
       0.047902055 0.13233958 0.109264836 -0.048945177
000230 00 42 57 3d d0 51 c3 3b 27 24 23 3d 80 3c 02 bd
       0.052553177 0.0059606805 0.0398294 -0.03179598
000240 83 3c 06 3e 88 c4 4f bc 5b 40 7c 3d 34 ef ad 3d
       0.13109021 -0.012681134 0.06158481 0.0849289
000250 14 06 17 bd a6 e1 e0 3d f1 d0 50 bd 19 94 95 3d
       -0.03687103 0.10980539 -0.050980512 0.07303638
000260 7e 45 ea bb 4a 79 b3 bd db 3c d4 bc 82 f9 14 3d
       -0.0071493974 -0.087633684 -0.025907924 0.03637076
000270 2a d3 ad 3d 10 00 b9 bd f3 e1 70 bd 02 24 4f 3d
       0.08487542 -0.09033215 -0.058809232 0.05057145
000280 22 7a a0 bd f1 64 86 bb 8e 55 c0 bd f9 a2 cb 3c
       -0.07835795 -0.0041013886 -0.09391318 0.024857985
000290 de f7 3b bd aa e4 27 3d 0b 72 78 3d a1 e9 79 3c
       -0.04589068 0.040989555 0.060655635 0.015253455
0002a0 6d b9 df bd 5d 40 c0 3d 68 20 c1 3d e2 2a fa bd
       -0.10924039 0.09387276 0.09430009 -0.122152105
0002b0 83 dd b6 3d 20 03 f8 bd 03 4d 77 3d 0f 4b 80 bc
       0.08928969 -0.12109971 0.06037618 -0.01566079
0002c0 96 63 e1 3b f9 e9 91 bd 5d 32 fb 3d 80 45 bf 3b
       0.0068783266 -0.07124705 0.122654654 0.0058371425
0002d0 13 6a fc bb 08 ed f5 3b 4a 14 b7 3d ac 81 e0 3d
       -0.0077030747 0.007505063 0.08939417 0.10962233
0002e0 7a 8e b0 bd 13 a6 d6 bd 22 8a 9d bd 92 c5 7f bd
       -0.08620925 -0.10480895 -0.07692362 -0.062444277
0002f0 6a 77 b3 bd da a6 60 bd fa c1 6b bd ff df 70 bc
       -0.08763011 -0.054846622 -0.057558037 -0.014701842
000300 9b b8 e8 3b a6 62 51 3d c9 46 e5 bd 1d 74 8c bd
       0.007102085 0.05111947 -0.11195142 -0.06858084
000310 ba d1 a5 bd 53 3a f7 bd 12 d2 9e bc 8d 49 ec bd
       -0.08096643 -0.12071671 -0.019387279 -0.11537466
000320 e4 ef b0 3c c6 b0 57 3c 67 25 02 be d9 ca 43 bd
       0.021598764 0.013164705 -0.1270958 -0.047800872
000330 81 a1 ab 3d dd 4e 86 bd 52 d2 c2 bd 6d f1 be 3d
       0.08380414 -0.06558011 -0.09512772 0.09323392
000340 20 f3 62 bc f0 8c 77 bc 3f ba 04 3e 10 3a 04 3d
       -0.013851911 -0.015109286 0.12961672 0.032281935
000350 1d f3 03 be fe 0c c0 3d 4d 34 f8 bb ed 1f 0b 3b
       -0.12885709 0.09377478 -0.007574594 0.0021228746
000360 b9 5a cf 3c 90 03 96 3d 53 da e3 3d 62 cb a4 bd
       0.025311815 0.07324898 0.111256264 -0.08046605
000370 1c a0 f7 3d 9e 52 c8 3d ec 31 0c be df 74 90 bd
       0.12091085 0.09781383 -0.13690919 -0.070535414
000380 c3 b9 07 3e 34 47 7e bd 41 fc 10 be e6 ab 96 3d
       0.13254456 -0.062079623 -0.14158727 0.07357006
000390 bc 6e 8d 3c 79 c5 25 3d e4 ef 8e 3d 08 2c fb 3c
       0.017264716 0.040471528 0.06979349 0.030660644
0003a0 72 49 c5 3d d2 e1 e0 bd c7 2a a4 bd bc e2 5d bd
       0.09633149 -0.10980572 -0.08015972 -0.05417131
0003b0 65 59 ff 3d 31 38 9f bd 54 5c 18 3d 0b 6a 7f 3d
       0.124682225 -0.077743895 0.037197426 0.06235699
0003c0 19 02 59 bd fc 2b 06 be 7f ca 57 3d cb 09 9a 3d
       -0.052980516 -0.13102716 0.05268335 0.07521399
0003d0 16 7d 01 bd ec cf 97 3d e5 b9 24 3d 64 48 86 bd
       -0.031613432 0.07412705 0.040216345 -0.06556776
0003e0 63 db a3 bd e1 a2 39 bd 15 ea 34 bd e4 35 a0 bc
       -0.08000829 -0.04532135 -0.04416855 -0.019556947
0003f0 0b 72 37 3b 0f b5 87 bd fd 2f 19 3e 59 7f 42 3a
       0.002799156 -0.06626331 0.14959712 0.0007419489

fc3.bias f4 [16]
000000 11 e0 11 3e 2b 7a 3c bc 17 62 83 3d 0e de c2 bd
       0.14245631 -0.0115037365 0.064151935 -0.0951501
000010 04 51 33 3d aa e4 e5 bd 65 d0 09 3e dd 0d 03 be
       0.043778434 -0.11225255 0.13458402 -0.12798257
000020 f5 c9 1e bd ce b3 a1 3d e6 c4 c7 3d d6 e2 09 3d
       -0.03876682 0.07895623 0.09754352 0.033663593
000030 82 26 ba 3c 24 46 d0 3d 7f 1e 95 bd 72 6e 5e bd
       0.02272344 0.10169628 -0.07281207 -0.054304548

bn5.weight f4 [16]
000000 00 00 80 3f 00 00 80 3f 00 00 80 3f 00 00 80 3f
       1.0 1.0 1.0 1.0
000010 00 00 80 3f 00 00 80 3f 00 00 80 3f 00 00 80 3f
       1.0 1.0 1.0 1.0
000020 00 00 80 3f 00 00 80 3f 00 00 80 3f 00 00 80 3f
       1.0 1.0 1.0 1.0
000030 00 00 80 3f 00 00 80 3f 00 00 80 3f 00 00 80 3f
       1.0 1.0 1.0 1.0

bn5.bias f4 [16]
000000 00 00 00 00 00 00 00 00 00 00 00 00 00 00 00 00
       0.0 0.0 0.0 0.0
000010 00 00 00 00 00 00 00 00 00 00 00 00 00 00 00 00
       0.0 0.0 0.0 0.0
000020 00 00 00 00 00 00 00 00 00 00 00 00 00 00 00 00
       0.0 0.0 0.0 0.0
000030 00 00 00 00 00 00 00 00 00 00 00 00 00 00 00 00
       0.0 0.0 0.0 0.0

bn5.running_mean f4 [16]
000000 00 00 00 00 00 00 00 00 00 00 00 00 00 00 00 00
       0.0 0.0 0.0 0.0
000010 00 00 00 00 00 00 00 00 00 00 00 00 00 00 00 00
       0.0 0.0 0.0 0.0
000020 00 00 00 00 00 00 00 00 00 00 00 00 00 00 00 00
       0.0 0.0 0.0 0.0
000030 00 00 00 00 00 00 00 00 00 00 00 00 00 00 00 00
       0.0 0.0 0.0 0.0

bn5.running_var f4 [16]
000000 00 00 80 3f 00 00 80 3f 00 00 80 3f 00 00 80 3f
       1.0 1.0 1.0 1.0
000010 00 00 80 3f 00 00 80 3f 00 00 80 3f 00 00 80 3f
       1.0 1.0 1.0 1.0
000020 00 00 80 3f 00 00 80 3f 00 00 80 3f 00 00 80 3f
       1.0 1.0 1.0 1.0
000030 00 00 80 3f 00 00 80 3f 00 00 80 3f 00 00 80 3f
       1.0 1.0 1.0 1.0
